model.pt (torch, 34643 bytes, 4 tensors)

0.weight f4 [64, 64]
-0.0094126165 -0.04434839 -0.043712422 0.0030820668 0.09240113 0.01146403 0.05349368 -0.028765365
0.043746233 0.083253324 0.09338626 -0.11278607 0.122064486 0.00923568 -0.1071319 0.09220947
0.05543728 -0.016557187 -0.08829573 0.07266453 0.116695166 -0.064960286 0.00010000169 0.014004722
0.1095465 -0.06729905 0.028243914 0.028541312 0.06435178 -0.012690097 -0.11080302 0.017133862
0.04181692 0.11245561 -0.036738858 0.07330343 -0.007992491 0.12437096 0.00669384 0.035153553
-0.08452627 -0.0065790266 -0.03761737 -0.064278856 -0.035141513 0.015507117 -0.089422524 0.008861303
0.11313154 0.021176666 0.07703139 0.11411923 -0.112741694 -0.07734501 0.05367537 0.02934508
0.009049267 0.11135362 -0.08973837 -0.10019541 0.040205315 0.106071144 0.078457326 -0.08870721
-0.05476308 0.047419682 -0.1030588 -0.10293324 -0.077336594 0.035388917 -0.08760369 -0.096000776
0.01656662 -0.12183055 0.03752266 0.037028506 0.06190954 0.095496416 -0.07683857 0.10526958
0.03975472 0.049493834 -0.11325692 0.075393274 -0.08984664 0.0043397546 -0.043031305 -0.12460178
0.07858631 0.08256845 0.06221968 -0.045230016 0.06926228 0.012078747 -0.055849448 -0.060380742
-0.06231782 0.06921378 -0.12467322 -0.09563705 -0.08362682 0.056267872 -0.017668337 0.115591496
0.09855011 -0.082705185 -0.06569053 0.038962528 -0.11515817 -0.10352115 0.066177085 0.028950334
0.033610523 0.089141086 -0.03299649 0.04519254 -0.06514664 -0.07518846 -0.035842568 0.09676437
0.05585234 -0.056916535 0.054729685 0.053857207 -0.020844847 -0.11712515 -0.05842513 -0.025884211
-0.009798825 -0.10160549 -0.10865614 -0.052658066 -0.1236797 0.08563782 -0.024836972 0.120919794
-0.05727251 -0.11720094 0.04133612 -0.062092647 0.11070551 0.054383054 0.03721018 -0.12200023
0.11841613 0.043948174 -0.09550446 -0.018032894 -0.12432924 -0.026982278 -0.053039417 -0.01063177
0.0046123117 0.056577012 0.07503095 0.09705195 0.016982034 -0.07091428 -0.03684956 -0.021081597
0.092546776 0.10376778 -0.028678343 -0.043286324 -0.02252078 -0.11944182 -0.0410458 0.020245165
0.090080395 0.08864498 -0.12197065 -0.022449791 0.0040960163 -0.017529666 -0.05758126 -0.05803381
0.01824914 -0.008809596 -0.01791951 -0.059390873 -0.015649095 -0.11037348 0.084910646 -0.07560128
-0.025160909 -0.12468134 -0.115092516 0.048338696 0.0661481 -0.021398142 -0.008004472 0.0747693
0.11076099 -0.10992439 0.019162089 -0.09036824 0.105087504 0.1163294 -0.0570658 -0.04223299
-0.04673721 -0.022185132 0.009638384 -0.07718235 -0.04742533 0.08233568 -0.017191917 0.020202324
0.039561212 0.057800755 -0.1212668 0.034706607 -0.1245967 0.054479375 -0.07498774 0.06826979
0.05751683 -0.011542484 0.10439359 -0.045059472 0.09482615 0.053199142 -0.045102328 -0.061113566
-0.054195 -0.085351944 0.055906013 -0.0701637 0.029500723 -0.044974357 0.01654613 -0.11039457
0.07515819 -0.012250513 0.025241315 0.03326796 0.10926725 0.10901925 -0.05657722 0.09433845
-0.032889336 0.00244613 -0.1003854 0.11535004 -0.010344237 0.107529804 -0.005449429 0.05907409
0.11826627 -0.0037767887 -0.041722193 0.080114976 0.0075217187 -0.11610386 -0.11423464 0.06379846
00000000: 6037 1abc a8a6 35bd cc0b 33bd 80fc 493b
00000010: ce3c bd3d a0d3 3b3c 301c 5b3d 58a5 ebbc
00000020: 402f 333d b880 aa3d 4c41 bf3d 62fc e6bd
00000030: f2fc f93d 4051 173c f867 dbbd 52d8 bc3d
00000040: 3412 633d f0a2 87bc 64d4 b4bd 24d1 943d
00000050: e0fd ee3d e609 85bd 00b8 d138 1074 653c
00000060: ea59 e03d 16d4 89bd c85f e73c 78cf e93c
00000070: deca 833d 20ea 4fbc b2ec e2bd 505c 8c3c
00000080: 3848 2b3d 204f e63d 7c7b 16bd 1c20 963d
00000090: f0f2 02bc 34b6 fe3d 0058 db3b 2cfd 0f3d
000000a0: 1c1c adbd e094 d7bb ac14 1abd a2a4 83bd
000000b0: 8cf0 0fbd 9011 7e3c 2823 b7bd 002f 113c
000000c0: 82b1 e73d b07a ad3c a2c2 9d3d 58b7 e93d
000000d0: 1ee5 e6bd 1067 9ebd b4da 5b3d 1865 f03c
000000e0: 6043 143c 5e0d e43d c0c8 b7bd 4033 cdbd
000000f0: 54ae 243d d43b d93d 3cae a03d 20ac b5bd
00000100: 404f 60bd 243b 423d 7e10 d3bd aace d2bd
00000110: a662 9ebd f8f3 103d 9069 b3bd 0e9c c4bd
00000120: b8b6 873c 4c82 f9bd 5cb1 193d 34ab 173d
00000130: dc94 7d3d a093 c33d 8a5d 9dbd 9497 d73d
00000140: d8d5 223d 0cba 4a3d 3ef3 e7bd ca67 9a3d
00000150: 8401 b8bd 8034 8e3b 9841 30bd 382f ffbd
00000160: dcf1 a03d a619 a93d 10da 7e3d 1c43 39bd
00000170: 62d9 8d3d f0e5 453c 64c2 64bd cc51 77bd
00000180: f840 7fbd f4bf 8d3d ac54 ffbd 5cdd c3bd
00000190: 8a44 abbd 2479 663d 30bd 90bc 3cbb ec3d
000001a0: a4d4 c93d 5661 a9bd c288 86bd 2c97 1f3d
000001b0: 0cd8 ebbd e602 d4bd da87 873d 4029 ed3c
000001c0: 30ab 093d 9a8f b63d 5427 07bd d01b 393d
000001d0: 9a6b 85bd 68fc 99bd a8cf 12bd 662c c63d
000001e0: 6cc5 643d 5021 69bd 3c2c 603d 6099 5c3d
000001f0: d0c2 aabc 50df efbd 304f 6fbd 200b d4bc
00000200: 408b 20bc 8a16 d0bd 1c87 debd fcaf 57bd
00000210: c84b fdbd e262 af3d e876 cbbc cca4 f73d
00000220: 9496 6abd 0c07 f0bd 1050 293d dc54 7ebd
00000230: 92b9 e23d c4c0 5e3d b469 183d 42db f9bd
00000240: 2884 f23d 0003 343d d897 c3bd b8b9 93bc
00000250: 54a0 febd f009 ddbc dc3f 59bd e030 2ebc
00000260: e022 973b 4cbd 673d d4a9 993d 2cc3 c63d
00000270: e81d 8b3c 823b 91bd 90ef 16bd 50b3 acbc
00000280: 2a89 bd3d 3484 d43d d8ee eabc 004d 31bd
00000290: 807d b8bc ea9d f4bd a41f 28bd 30d9 a53c
000002a0: 127c b83d 808b b53d c0cb f9bd a0e8 b7bc
000002b0: e037 863b 609a 8fbc 54da 6bbd dcb4 6dbd
000002c0: 387f 953c 2056 10bc f0cb 92bc d843 73bd
000002d0: 8832 80bc 7e0b e2bd a2e5 ad3d d8d4 9abd
000002e0: 401e cebc ee58 ffbd a0b5 ebbd ccfe 453d
000002f0: a878 873d 284b afbc 3025 03bc a620 993d
00000300: a8d6 e23d 0a20 e1bd d0f9 9c3c fc12 b9bd
00000310: 1e38 d73d 1c3e ee3d d4bd 69bd 80fc 2cbd
00000320: 846f 3fbd 98bd b5bc 50ea 1d3c c811 9ebd
00000330: 1041 42bd 9c9f a83d 10d6 8cbc 587f a53c
00000340: f00a 223d 7cc0 6c3d ba5a f8bd 8428 0e3d
00000350: 8e2c ffbd c425 5f3d 2c93 99bd 08d1 8b3d
00000360: c496 6b3d b01c 3dbc 4ecc d53d 4890 38bd
00000370: 3634 c23d 58e7 593d 38bd 38bd 3852 7abd
00000380: 94fb 5dbd 00cd aebd b4fd 643d fcb1 8fbd
00000390: 80ab f13c 0837 38bd c08b 873c 8c16 e2bd
000003a0: 8aec 993d 60b6 48bc e0c6 ce3c fc43 083d
000003b0: 82c7 df3d 7c45 df3d 84bd 67bd 8434 c13d
000003c0: f8b6 06bd 404f 203b dc96 cdbd a43c ec3d
000003d0: e07a 29bc 9638 dc3d 2091 b2bb acf7 713d
000003e0: 9635 f23d 0084 77bb e4e4 2abd 5213 a43d
000003f0: c078 f63b dcc7 edbd daf3 e9bd c4a8 823d

0.bias f4 [64]
-0.04444973 0.10198814 -0.075020015 -0.12475197 0.079951406 -0.008181721 0.1248517 -0.07393725
-0.034248978 0.10248798 0.08030017 0.0065163076 0.07081102 -0.10544057 0.034149393 -0.1121459
0.11309549 -0.037580162 0.117713705 0.10476433 -0.11287196 0.04724878 0.025419235 -0.1241525
-0.04471676 -0.053557187 0.081922725 -0.10085298 -0.028699681 0.10423352 -0.11940962 -0.093324885
-0.06914888 -0.027757242 0.10288079 -0.031268388 0.1209133 -0.09663418 0.12202853 -0.02529478
-0.017567351 0.011454657 -0.09747064 0.11190225 -0.022161901 -0.1229658 0.11873363 0.049240932
-0.011981159 0.116446674 -0.12461221 0.106172726 -0.08743191 -0.07438925 -0.089575574 -0.11649898
0.041692033 -0.10826604 0.081757545 -0.06701566 -0.00037634373 -0.11214936 -0.01767312 -0.083105534
00000000: ec10 36bd 28df d03d 18a4 99bd f67d ffbd
00000010: 90bd a33d a00c 06bc 40b2 ff3d 6a6c 97bd
00000020: a848 0cbd 38e5 d13d 6a74 a43d c086 d53b
00000030: 5e05 913d 3af1 d7bd 3ce0 0b3d c0ac e5bd
00000040: 9c9e e73d a8ed 19bd e213 f13d ae8e d63d
00000050: 6a29 e7bd f087 413d 003c d03c aa43 febd
00000060: ec28 37bd c85e 5bbd 1ac7 a73d 028c cebd
00000070: 981b ebbc 6278 d53d 088d f4bd 1e21 bfbd
00000080: ee9d 8dbd 2863 e3bc 2ab3 d23d 4813 00bd
00000090: 64a1 f73d 24e8 c5bd 18ea f93d 0037 cfbc
000000a0: 68e9 8fbc 50ac 3b3c b09e c7bd 022d e53d
000000b0: e08c b5bc 7ed5 fbbd 9e2a f33d dcb0 493d
000000c0: a04c 44bc 987b ee3d b034 ffbd 1671 d93d
000000d0: 800f b3bd 6459 98bd 6673 b7bd 0497 eebd
000000e0: 44c5 2a3d 96ba ddbd 8070 a73d 823f 89bd
000000f0: 0050 c5b9 90ae e5bd 38c7 90bc 3c33 aabd

1.weight f4 [64, 64]
-0.09538028 0.07834004 0.02814655 0.119279996 -0.1035144 0.091903046 -0.10895525 0.04260935
0.11957204 -0.09411955 -0.076502085 -0.029870257 0.067141905 -0.1249522 0.052629486 0.088204
-0.098965496 0.044645682 0.08277407 -0.106673256 -0.03108579 -0.09101501 -0.10360609 0.04519202
0.09096636 0.1114604 0.04482104 0.009668499 -0.014581591 0.12401794 -0.09368922 -0.082867905
-0.04829523 -0.043434024 0.03929262 0.008784831 0.12225072 0.02396229 0.09487307 -0.013415247
0.042170227 0.08377299 -0.10923833 -0.07263322 0.013203472 -0.11248346 -0.0003414303 0.0008211285
0.042837366 0.05933629 0.0022410601 0.0751179 -0.10903251 0.11127266 0.005673319 0.014271736
0.10184635 -0.015133306 -0.0127637535 0.049025178 0.07985182 0.06468375 0.0351862 0.09780368
-0.118842974 0.0038347691 -0.10460915 -0.07693064 0.060948998 0.118541434 -0.028818667 0.04664612
-0.0010305494 0.037219673 0.09145111 0.06796816 -0.026242822 -0.012716666 0.11220518 0.02691023
-0.023518458 -0.009258434 0.07813296 -0.0007379353 0.09095752 -0.04996237 0.11754121 0.100425825
0.0473527 0.05387041 0.012720376 0.07271327 0.059335664 0.05908698 -0.12095828 -0.035760224
0.0769601 0.056460887 -0.11044189 0.016128376 0.11654472 -0.039151624 -0.029642895 0.094060704
0.056601897 -0.0032877624 -0.117194995 -0.044777974 -0.0151783675 -0.0707542 -0.11143938 -0.07515514
0.030980602 0.07034686 -0.10814361 -0.030895218 -0.065697744 -0.020216063 -0.037687927 0.029503018
-0.110970765 0.046053976 -0.025402352 0.07844782 0.08961533 0.038449034 -0.060237378 0.03315167
0.12327497 0.010811478 0.0729579 0.065230936 0.0522954 0.12369612 0.08033198 -0.0079487115
0.07100676 0.03476788 -0.03353882 0.1017572 0.0058175176 -0.054235145 -0.027051419 -0.11908573
-0.06465855 -0.10561347 -0.026057974 -0.020000339 0.058093444 -0.08984856 -0.021334931 -0.0018741488
0.031594872 0.10359186 -0.111530036 -0.11941336 0.023015007 0.11368486 0.08581293 -0.06940697
-0.007496938 -0.07722014 0.092789054 -0.03820935 -0.023470134 0.11189163 0.040306628 0.028042689
-0.10230501 -0.1071738 0.028750747 -0.040573 -0.09741378 -0.012099028 -0.008480519 -0.012184545
0.10044423 -0.0021888614 -0.09149735 0.061576217 -0.002506122 -0.004877448 -0.013126895 0.008080184
-0.094481334 0.10602273 -0.04148245 -0.10008989 -0.12167613 -0.07544267 0.1178682 -0.030563816
-0.0096227825 -0.016937643 -7.3075294e-05 -0.11691992 -0.0022671372 -0.04328789 0.082532644 -0.1188184
0.11994097 -0.068868905 -0.049871832 0.07320906 0.0294016 -0.06829007 0.021961212 -0.11915007
-0.020775467 -0.08613825 -0.091780275 -0.060372427 -0.06989738 -0.051123053 -0.0068232417 0.09653385
0.026594102 -0.0761873 -0.022159696 0.009860694 -0.064623 0.04787606 -0.038037643 0.054944336
-0.016384348 -0.08330974 -0.012680873 0.12296516 -0.12275654 -0.0099039525 0.07900724 0.08668661
0.050408572 -0.010380566 -0.06751573 -0.031174079 -0.056836233 -0.029920146 -0.08328289 0.07191971
0.07534452 -0.081935346 0.10720278 -0.037829697 -0.11683197 -0.0143741965 0.016191155 -0.08848031
0.077616215 -0.11414328 -0.06451242 -0.024961486 -0.059873983 -0.066649705 0.028092414 -0.019094676
00000000: bc56 c3bd be70 a03d 9893 e63c 1249 f43d
00000010: 5cff d3bd aa37 bc3d ee23 dfbd 2487 2e3d
00000020: 30e2 f43d c0c1 c0bd 20ad 9cbd 78b2 f4bc
00000030: b281 893d f0e6 ffbd 0492 573d 4ca4 b43d
00000040: 6cae cabd 64de 363d 7485 a93d 8277 dabd
00000050: a0a7 febc 1466 babd 6e2f d4bd 441b 393d
00000060: 924c ba3d 5a45 e43d 4496 373d a068 1e3c
00000070: a0e7 6ebc 1efd fd3d 22e0 bfbd a6b6 a9bd
00000080: 38d1 45bd e0e7 31bd 4cf1 203d 40ee 0f3c
00000090: 965e fa3d 904c c43c d04c c23d a0cb 5bbc
000000a0: b0ba 2c3d 2c91 ab3d 58b8 dfbd bac0 94bd
000000b0: 6053 583c ba5d e6bd 0002 b3b9 0041 573a
000000c0: 3c76 2f3d 9c0a 733d c0de 123b 6ad7 993d
000000d0: 704c dfbd ece2 e33d 40e7 b93b 00d4 693c
000000e0: d294 d03d b0f1 77bc 101f 51bc a0ce 483d
000000f0: 5a89 a33d ea78 843d 681f 103d 4c4d c83d
00000100: f263 f3bd c050 7b3b 523d d6bd d08d 9dbd
00000110: a8a5 793d dac5 f23d 2015 ecbc 0010 3f3d
00000120: 8013 87ba a873 183d b84a bb3d e432 8b3d
00000130: 30fb d6bc 9059 50bc d4cb e53d d872 dc3c
00000140: c8a9 c0bc b0b0 17bc 2c04 a03d 0072 41ba
00000150: f047 ba3d 58a5 4cbd 72b9 f03d 0eac cd3d
00000160: e8f4 413d 38a7 5c3d 2069 503c b2ea 943d
00000170: f409 733d 3005 723d fab8 f7bd 5079 12bd
00000180: 429d 9d3d 8843 673d 5c2f e2bd a81f 843c
00000190: 00af ee3d 745d 20bd a8d5 f2bc e6a2 c03d
000001a0: 64d7 673d 8077 57bb ee03 f0bd 1c69 37bd
000001b0: b0ae 78bc 94e7 90bd 543a e4bd f0ea 99bd
000001c0: 08cb fd3c 0412 903d 667a ddbd f817 fdbc
000001d0: 8a8c 86bd 289c a5bc a85e 1abd 50b0 f13c
000001e0: a444 e3bd 18a3 3c3d 9818 d0bc 40a9 a03d
000001f0: 3e88 b73d bc7c 1d3d 78bb 76bd 0cca 073d
00000200: 9677 fc3d a022 313c f46a 953d cc97 853d
00000210: b433 563d 6454 fd3d 1885 a43d 503b 02bc
00000220: fe6b 913d c468 0e3d 0060 09bd 1466 d03d
00000230: e0a0 be3b ac25 5ebd f09a ddbc 38e3 f3bd
00000240: b46b 84bd e04b d8bd 8877 d5bc c0d7 a3bc
00000250: 64f3 6d3d 8602 b8bd 98c6 aebc 00a6 f5ba
00000260: a069 013d f827 d43d dc69 e4bd fe8e f4bd
00000270: f889 bc3c 9cd3 e83d b0be af3d 3e25 8ebd
00000280: e0a8 f5bb 9825 9ebd 3008 be3d 6881 1cbd
00000290: 7044 c0bc 7027 e53d 9018 253d c8b9 e53c
000002a0: 4a85 d1bd f07d dbbd b086 eb3c e02f 26bd
000002b0: e080 c7bd 003b 46bc e0f1 0abc b0a1 47bc
000002c0: b4b5 cd3d 0073 0fbb f662 bbbd 5837 7c3d
000002d0: c03d 24bb 00d3 9fbb 3012 57bc c062 043c
000002e0: 6e7f c1bd 7222 d93d 80e9 29bd eefb ccbd
000002f0: 5631 f9bd b081 9abd e264 f13d f860 fabc
00000300: e0a8 1dbc d0c0 8abc 0040 99b8 b673 efbd
00000310: 4094 14bb a44e 31bd e006 a93d 1057 f3bd
00000320: 9ca3 f53d 240b 8dbd 6846 4cbd a2ee 953d
00000330: a0db f03c aadb 8bbd 00e8 b33c f404 f4bd
00000340: 5031 aabc 4069 b0bd 4cf7 bbbd 1449 77bd
00000350: 5c26 8fbd 6866 51bd 8095 dfbb 8ab3 c53d
00000360: e0db d93c 1608 9cbd 4088 b5bc c08e 213c
00000370: 1059 84bd b019 443d 5ccd 1bbd 500d 613d
00000380: 7838 86bc 4c9e aabd 70c3 4fbc 28d5 fb3d
00000390: c867 fbbd 3044 22bc 8cce a13d c088 b13d
000003a0: 3879 4e3d 4013 2abc b045 8abd c860 ffbc
000003b0: 1ccd 68bd 181b f5bc 3890 aabd a44a 933d
000003c0: 3a4e 9a3d b8cd a7bd 228d db3d 50f3 1abd
000003d0: 9a45 efbd c081 6bbc 50a3 843c 2a35 b5bd
000003e0: 40f5 9e3d f4c3 e9bd 161f 84bd 087c ccbc
000003f0: 6c3e 75bd a47f 88bd 1022 e63c 706c 9cbc

1.bias f4 [64]
0.0025420338 0.007015258 0.11183794 0.009045303 0.11682987 0.11872989 -0.005306393 0.05284886
-0.025040314 -0.07163261 -0.012003362 0.10898131 -0.0026704967 0.05890487 -0.07202676 0.011337623
-0.12036981 0.0716168 -0.08470899 -0.09067801 0.033378765 -0.054636568 -0.10919042 0.12041034
0.005439475 0.03743805 0.012756765 -0.117801845 -0.0047742575 0.111822724 -0.029897988 0.028733477
-0.0201412 -0.008557171 0.023411289 0.028296024 0.044759274 0.00094786286 -0.006476268 0.034023717
-0.11321287 -0.06732215 0.0490932 0.103767246 0.011489764 -0.03588243 0.008985728 -0.051919013
0.121252015 -0.07551101 0.012098074 -0.122020856 3.8042665e-05 0.0037004948 0.046644717 0.122443005
0.10067852 0.07065536 -0.09521322 0.08291486 0.123205885 0.025918916 -0.0031517893 0.12099221
00000000: 4098 263b 40e0 e53b 4a0b e53d c032 143c
00000010: 8044 ef3d a828 f33d 40e1 adbb 0c78 583d
00000020: 5821 cdbc 1eb4 92bd c0a9 44bc 9831 df3d
00000030: 8003 2fbb 3c46 713d c482 93bd 70c1 393c
00000040: 7284 f6bd d4ab 923d e87b adbd 64b5 b9bd
00000050: 2cb8 083d 98ca 5fbd 3a9f dfbd b299 f63d
00000060: a03d b23b a458 193d c001 513c 1842 f1bd
00000070: 6071 9cbb 5003 e53d a0ec f4bc 7862 eb3c
00000080: 28ff a4bc 6033 0cbc 08c9 bf3c 10cd e73c
00000090: 8055 373d 007a 783a e036 d4bb 745c 0b3d
000000a0: 26dc e7bd 32e0 89bd f415 493d ec83 d43d
000000b0: 903f 3c3c 74f9 12bd e038 133c 08a9 54bd
000000c0: fa52 f83d 84a5 9abd 0037 463c 12e6 f9bd
000000d0: 0090 1f38 0084 723b 880e 3f3d 66c3 fa3d
000000e0: 8a30 ce3d c2b3 903d 26ff c2bd 44cf a93d
000000f0: 5e53 fc3d e853 d43c 408e 4ebb c4ca f73d
